…
  model.add(MaxPooling2D())


  model.add(Flatten())
  model.add(Dense(128, activation='relu'))

  model.add(Dense(1, activation='sigmoid')) 

  model.compile(optimizer='RMSprop', loss='binary_crossentropy', metrics=['accuracy'])
  model.summary()

  return model

model3 = model3()
history3 = model3.fit(dataset_tr, validation_data=dataset_vl, epochs=15)

Model: ""sequential_11""
_________________________________________________________________
 Layer (type)                Output Shape              Param #   
=================================================================
 rescaling_6 (Rescaling)     (None, 160, 160, 3)       0         
                                                                 
 conv2d_40 (Conv2D)          (None, 160, 160, 32)      896       
                                                                 
 batch_normalization_36 (Bat  (None, 160, 160, 32)     128       
 chNormalization)                                                
                                                                 
 max_pooling2d_39 (MaxPoolin  (None, 80, 80, 32)       0         
 g2D)                                                            
                                                                 
 conv2d_41 (Conv2D)          (None, 80, 80, 32)        9248      
                                                                 
 batch_normalization_37 (Bat  (None, 80, 80, 32)       128       
 chNormalization)                                                
                                                                 
 max_pooling2d_40 (MaxPoolin  (None, 40, 40, 32)       0         
 g2D)                                                            
                                                                 
 conv2d_42 (Conv2D)          (None, 40, 40, 64)        18496     
                                                                 
 batch_normalization_38 (Bat  (None, 40, 40, 64)       256       
 chNormalization)                                                
                                                                 
 max_pooling2d_41 (MaxPoolin  (None, 20, 20, 64)       0         
 g2D)                                                            
                                                                 
 conv2d_43 (Conv2D)          (None, 20, 20, 64)        36928     
                                                                 
 batch_normalization_39 (Bat  (None, 20, 20, 64)       256       
 chNormalization)                                                
                                                                 
 max_pooling2d_42 (MaxPoolin  (None, 10, 10, 64)       0         
 g2D)                                                            
                                                                 
 conv2d_44 (Conv2D)          (None, 10, 10, 32)        18464     
                                                                 
 batch_normalization_40 (Bat  (None, 10, 10, 32)       128       
 chNormalization)                                                
                                                                 
 max_pooling2d_43 (MaxPoolin  (None, 5, 5, 32)         0         
 g2D)                                                            
                                                                 
 conv2d_45 (Conv2D)          (None, 5, 5, 32)          9248      
                                                                 
 batch_normalization_41 (Bat  (None, 5, 5, 32)         128       
 chNormalization)                                                
                                                                 
 max_pooling2d_44 (MaxPoolin  (None, 2, 2, 32)         0         
 g2D)                                                            
                                                                 
 flatten_9 (Flatten)         (None, 128)               0         
                                                                 
 dense_18 (Dense)            (None, 128)               16512     
                                                                 
 dense_19 (Dense)            (None, 1)                 129       
                                                                 
=================================================================
Total params: 110,945
Trainable params: 110,433
Non-trainable params: 512
_________________________________________________________________
Epoch 1/15
216/244 [=========================>....] - ETA: 35s - loss: 0.5706 - accuracy: 0.7291/usr/local/lib/python3.9/dist-packages/PIL/Image.py:975: UserWarning: Palette images with Transparency expressed in bytes should be converted to RGBA images
…
Concept: each value in the sequence represents a class of real data instance and the objective is to predict the next class instance.

X[n] = [3, 4, 3, 0, 2, 6, 6, 6, 6, 5, 4, 3, 2, 2, 2, 2, 4, 2, 0, 0] => Y[n] = 0

Class Distribution in Y:
0: 46458
1: 40909
2: 76398
3: 102515
4: 80830
5: 43569
6: 45123

I have tried various combinations of layers like Conv, LSTM, SimpleRNN, Bidirectional, GRU, Dense, etc
Latest Model Definition:
model: ""sequential_69""
_________________________________________________________________
 Layer (type)                Output Shape              Param #   
=================================================================
 conv1d_11 (Conv1D)          (None, 20, 64)            256       
                                                                 
 bidirectional_32 (Bidirecti  (None, 20, 512)          494592    
 onal)                                                           
                                                                 
 bidirectional_33 (Bidirecti  (None, 20, 512)          1182720   
 onal)                                                           
                                                                 
 lstm_56 (LSTM)              (None, 20, 64)            147712    
                                                                 
 lstm_57 (LSTM)              (None, 20, 32)            12416     
                                                                 
 lstm_58 (LSTM)              (None, 16)                3136      
                                                                 
 dropout_95 (Dropout)        (None, 16)                0         
                                                                 
 flatten_42 (Flatten)        (None, 16)                0         
                                                                 
 dropout_96 (Dropout)        (None, 16)                0         
                                                                 
 dense_217 (Dense)           (None, 7)                 119       
                                                                 
=================================================================
Total params: 1,840,951
Trainable params: 1,840,951
Non-trainable params: 0
_________________________________________________________________
Epoch 1/20
698/698 - 24s - loss: 1.8671 - accuracy: 0.2324 - val_loss: 1.9549 - val_accuracy: 0.1769 - 24s/epoch - 35ms/step
…
