…
RAM = 8.000.000 * (8 (float64)) / 1.000.000 (scaling to MB)
RAM = 64 MB, right?
The TensorFlow requires more memory to store the image at each layer?
By the way, these are my GPU Specifications:

Nvidia GeForce 1050 4GB

Networking topology

Unet
Input Shape (256,256,4)

Model: ""functional_1""
__________________________________________________________________________________________________
Layer (type)                    Output Shape         Param #     Connected to                     
==================================================================================================
input_1 (InputLayer)            [(None, 256, 256, 4) 0                                            
__________________________________________________________________________________________________
conv2d (Conv2D)                 (None, 256, 256, 64) 2368        input_1[0][0]                    
__________________________________________________________________________________________________
dropout (Dropout)               (None, 256, 256, 64) 0           conv2d[0][0]                     
__________________________________________________________________________________________________
conv2d_1 (Conv2D)               (None, 256, 256, 64) 36928       dropout[0][0]                    
__________________________________________________________________________________________________
max_pooling2d (MaxPooling2D)    (None, 128, 128, 64) 0           conv2d_1[0][0]                   
__________________________________________________________________________________________________
conv2d_2 (Conv2D)               (None, 128, 128, 128 73856       max_pooling2d[0][0]              
__________________________________________________________________________________________________
dropout_1 (Dropout)             (None, 128, 128, 128 0           conv2d_2[0][0]                   
__________________________________________________________________________________________________
conv2d_3 (Conv2D)               (None, 128, 128, 128 147584      dropout_1[0][0]                  
__________________________________________________________________________________________________
max_pooling2d_1 (MaxPooling2D)  (None, 64, 64, 128)  0           conv2d_3[0][0]                   
__________________________________________________________________________________________________
conv2d_4 (Conv2D)               (None, 64, 64, 256)  295168      max_pooling2d_1[0][0]            
__________________________________________________________________________________________________
dropout_2 (Dropout)             (None, 64, 64, 256)  0           conv2d_4[0][0]                   
__________________________________________________________________________________________________
conv2d_5 (Conv2D)               (None, 64, 64, 256)  590080      dropout_2[0][0]                  
__________________________________________________________________________________________________
max_pooling2d_2 (MaxPooling2D)  (None, 32, 32, 256)  0           conv2d_5[0][0]                   
__________________________________________________________________________________________________
conv2d_6 (Conv2D)               (None, 32, 32, 512)  1180160     max_pooling2d_2[0][0]            
__________________________________________________________________________________________________
dropout_3 (Dropout)             (None, 32, 32, 512)  0           conv2d_6[0][0]                   
__________________________________________________________________________________________________
conv2d_7 (Conv2D)               (None, 32, 32, 512)  2359808     dropout_3[0][0]                  
__________________________________________________________________________________________________
conv2d_transpose (Conv2DTranspo (None, 64, 64, 256)  524544      conv2d_7[0][0]                   
__________________________________________________________________________________________________
concatenate (Concatenate)       (None, 64, 64, 512)  0           conv2d_transpose[0][0]           
                                                                 conv2d_5[0][0]                   
__________________________________________________________________________________________________
conv2d_8 (Conv2D)               (None, 64, 64, 256)  1179904     concatenate[0][0]                
__________________________________________________________________________________________________
dropout_4 (Dropout)             (None, 64, 64, 256)  0           conv2d_8[0][0]                   
__________________________________________________________________________________________________
conv2d_9 (Conv2D)               (None, 64, 64, 256)  590080      dropout_4[0][0]                  
__________________________________________________________________________________________________
conv2d_transpose_1 (Conv2DTrans (None, 128, 128, 128 131200      conv2d_9[0][0]                   
__________________________________________________________________________________________________
concatenate_1 (Concatenate)     (None, 128, 128, 256 0           conv2d_transpose_1[0][0]         
…
conv2d_10 (Conv2D)              (None, 128, 128, 128 295040      concatenate_1[0][0]              
__________________________________________________________________________________________________
dropout_5 (Dropout)             (None, 128, 128, 128 0           conv2d_10[0][0]                  
__________________________________________________________________________________________________
conv2d_11 (Conv2D)              (None, 128, 128, 128 147584      dropout_5[0][0]                  
__________________________________________________________________________________________________
conv2d_transpose_2 (Conv2DTrans (None, 256, 256, 64) 32832       conv2d_11[0][0]                  
__________________________________________________________________________________________________
concatenate_2 (Concatenate)     (None, 256, 256, 128 0           conv2d_transpose_2[0][0]         
                                                                 conv2d_1[0][0]                   
__________________________________________________________________________________________________
conv2d_12 (Conv2D)              (None, 256, 256, 64) 73792       concatenate_2[0][0]              
__________________________________________________________________________________________________
dropout_6 (Dropout)             (None, 256, 256, 64) 0           conv2d_12[0][0]                  
__________________________________________________________________________________________________
conv2d_13 (Conv2D)              (None, 256, 256, 64) 36928       dropout_6[0][0]                  
__________________________________________________________________________________________________
conv2d_14 (Conv2D)              (None, 256, 256, 1)  65          conv2d_13[0][0]                  
==================================================================================================
Total params: 7,697,921
Trainable params: 7,697,921
Non-trainable params: 0

This is the error given.
---------------------------------------------------------------------------
ResourceExhaustedError                    Traceback (most recent call last)
<ipython-input-17-d4852b86b8c1> in <module>
…
What type of model should I fit to increase accuracy?,"
Currently, I'm working on 6-axis IMU(Inertial Measurment Unit) dataset. This dataset contain 6 axis IMU data of 7 different drivers. The Imu sensor attached on vehicle. The drivers drives same path. So, the dataset include 6 feature columns and a label column.
I tried multiple neural network models.The sensor data is a sequential data so I tried LSTM(Long Short Term Memory) & classical fully-connected layers.
Some of my architecture(in keras framework):

Layer (type)                 Output Shape              Param #   

lstm_4 (LSTM)                (None, 1, 128)            69120     
_________________________________________________________________
lstm_5 (LSTM)                (None, 1, 64)             49408     
_________________________________________________________________
lstm_6 (LSTM)                (None, 1, 32)             12416     
_________________________________________________________________
dense_8 (Dense)              (None, 1, 64)             2112      
_________________________________________________________________
dropout_2 (Dropout)          (None, 1, 64)             0         
_________________________________________________________________
dense_9 (Dense)              (None, 1, 7)              455       


2nd Architecture:

=================================================================
dense_10 (Dense)             (None, 32)                224       
_________________________________________________________________
dense_11 (Dense)             (None, 64)                2112      
_________________________________________________________________
dense_12 (Dense)             (None, 128)               8320      
_________________________________________________________________
dense_13 (Dense)             (None, 256)               33024     
_________________________________________________________________
dropout_3 (Dropout)          (None, 256)               0         
_________________________________________________________________
dense_14 (Dense)             (None, 512)               131584    
_________________________________________________________________
dense_15 (Dense)             (None, 256)               131328    
_________________________________________________________________
dense_16 (Dense)             (None, 128)               32896     
_________________________________________________________________
dense_17 (Dense)             (None, 64)                8256      
_________________________________________________________________
dropout_4 (Dropout)          (None, 64)                0         
_________________________________________________________________
dense_18 (Dense)             (None, 128)               8320      
_________________________________________________________________
dense_19 (Dense)             (None, 7)                 903     

The best accuracy in my models was %70 which is not good. How style of layers should I use to handle this data? Or, which type of model would increase accuracy?
","['deep-learning', 'recurrent-neural-networks', 'long-short-term-memory', 'deep-neural-networks']",after reading some literature in the area I'd recommend the following:
Why does the output shape of a Dense layer contain a batch size?,"
…
# decoded = Reshape(decodedSize, input_shape=decodedSize)(decoded)


autoencoder = Model(input_img, decoded)
autoencoder.compile(optimizer='adadelta', loss='binary_crossentropy')

My input shape is: 1169x827
This is Keras output:
Model: ""model_6""
_________________________________________________________________
Layer (type)                 Output Shape              Param #   
=================================================================
input_7 (InputLayer)         [(None, 1169, 827, 1)]    0         
_________________________________________________________________
conv2d_30 (Conv2D)           (None, 1169, 827, 32)     320       
_________________________________________________________________
max_pooling2d_12 (MaxPooling (None, 585, 414, 32)      0         
_________________________________________________________________
conv2d_31 (Conv2D)           (None, 585, 414, 64)      18496     
_________________________________________________________________
max_pooling2d_13 (MaxPooling (None, 293, 207, 64)      0         
_________________________________________________________________
conv2d_32 (Conv2D)           (None, 291, 205, 32)      18464     
_________________________________________________________________
up_sampling2d_12 (UpSampling (None, 582, 410, 32)      0         
_________________________________________________________________
conv2d_33 (Conv2D)           (None, 582, 410, 32)      9248      
_________________________________________________________________
up_sampling2d_13 (UpSampling (None, 1164, 820, 32)     0         
_________________________________________________________________
conv2d_34 (Conv2D)           (None, 1162, 818, 1)      289       
===============================================================

How can I have the same input and output shape?
","['convolutional-neural-networks', 'tensorflow', 'keras', 'autoencoders']",
"What is meant by gene, chromosome, population in genetic algorithm in terms of feature selection?","
I am trying to understand the genetic algorithm in terms of feature selection and these features are extracted using a machine learning algorithm.
…
