…
Also, the study had a loss of under 1 in just 5 epochs. Which I can hardly hit with mine.
And does the image's scale a factor here? If so, can I improve it by introducing data augmentation in my dataset?
A sample of the dataset:

Below, is the summary of my model made in keras
Model: ""handwriting_recognizer""
__________________________________________________________________________________________________
 Layer (type)                   Output Shape         Param #     Connected to                     
==================================================================================================
 image (InputLayer)             [(None, 360, 60, 1)  0           []                               
                                ]                                                                 
                                                                                                  
 Conv1 (Conv2D)                 (None, 360, 60, 64)  1664        ['image[0][0]']                  
                                                                                                  
 batchnorm1 (BatchNormalization  (None, 360, 60, 64)  256        ['Conv1[0][0]']                  
 )                                                                                                
                                                                                                  
 pool1 (MaxPooling2D)           (None, 180, 30, 64)  0           ['batchnorm1[0][0]']             
                                                                                                  
 Conv2 (Conv2D)                 (None, 180, 30, 64)  36928       ['pool1[0][0]']                  
                                                                                                  
 batchnorm2 (BatchNormalization  (None, 180, 30, 64)  256        ['Conv2[0][0]']                  
 )                                                                                                
                                                                                                  
 pool2 (MaxPooling2D)           (None, 90, 15, 64)   0           ['batchnorm2[0][0]']             
                                                                                                  
 Conv3 (Conv2D)                 (None, 90, 15, 256)  147712      ['pool2[0][0]']                  
                                                                                                  
 Conv4 (Conv2D)                 (None, 90, 15, 256)  590080      ['Conv3[0][0]']                  
                                                                                                  
 batchnorm3 (BatchNormalization  (None, 90, 15, 256)  1024       ['Conv4[0][0]']                  
 )                                                                                                
                                                                                                  
 pool3 (MaxPooling2D)           (None, 45, 7, 256)   0           ['batchnorm3[0][0]']             
                                                                                                  
 Conv5 (Conv2D)                 (None, 45, 7, 512)   1180160     ['pool3[0][0]']                  
                                                                                                  
 Conv6 (Conv2D)                 (None, 45, 7, 512)   2359808     ['Conv5[0][0]']                  
                                                                                                  
 batchnorm4 (BatchNormalization  (None, 45, 7, 512)  2048        ['Conv6[0][0]']                  
 )                                                                                                
                                                                                                  
 pool4 (MaxPooling2D)           (None, 22, 3, 512)   0           ['batchnorm4[0][0]']             
                                                                                                  
 reshape (Reshape)              (None, 22, 1536)     0           ['pool4[0][0]']                  
                                                                                                  
 dense1 (Dense)                 (None, 22, 64)       98368       ['reshape[0][0]']                
                                                                                                  
 dropout (Dropout)              (None, 22, 64)       0           ['dense1[0][0]']                 
                                                                                                  
 bidirectional (Bidirectional)  (None, 22, 256)      197632      ['dropout[0][0]']                
                                                                                                  
 bidirectional_1 (Bidirectional  (None, 22, 256)     394240      ['bidirectional[0][0]']          
 )                                                                                                
                                                                                                  
 bidirectional_2 (Bidirectional  (None, 22, 128)     164352      ['bidirectional_1[0][0]']        
 )                                                                                                
                                                                                                  
 dropout_1 (Dropout)            (None, 22, 128)      0           ['bidirectional_2[0][0]']        
                                                                                                  
 label (InputLayer)             [(None, None)]       0           []                               
                                                                                                  
 dense2 (Dense)                 (None, 22, 85)       10965       ['dropout_1[0][0]']              
                                                                                                  
 ctc_loss (CTCLayer)            (None, 22, 85)       0           ['label[0][0]',                  
                                                                  'dense2[0][0]']                 
                                                                                                  
==================================================================================================
Total params: 5,185,493
Trainable params: 5,183,701
Non-trainable params: 1,792
…
conv2d_2 (Conv2D)               (None, 128, 128, 128 147584      dropout_1[0][0]                  
__________________________________________________________________________________________________
dropout_2 (Dropout)             (None, 128, 128, 128 0           conv2d_2[0][0]                   
__________________________________________________________________________________________________
conv2d_3 (Conv2D)               (None, 128, 128, 256 295168      dropout_2[0][0]                  
__________________________________________________________________________________________________
max_pooling2d_1 (MaxPooling2D)  (None, 64, 64, 256)  0           conv2d_3[0][0]                   
__________________________________________________________________________________________________
dropout_3 (Dropout)             (None, 64, 64, 256)  0           max_pooling2d_1[0][0]            
__________________________________________________________________________________________________
conv2d_4 (Conv2D)               (None, 64, 64, 256)  590080      dropout_3[0][0]                  
__________________________________________________________________________________________________
dropout_4 (Dropout)             (None, 64, 64, 256)  0           conv2d_4[0][0]                   
__________________________________________________________________________________________________
conv2d_5 (Conv2D)               (None, 64, 64, 512)  1180160     dropout_4[0][0]                  
__________________________________________________________________________________________________
max_pooling2d_2 (MaxPooling2D)  (None, 32, 32, 512)  0           conv2d_5[0][0]                   
__________________________________________________________________________________________________
dropout_5 (Dropout)             (None, 32, 32, 512)  0           max_pooling2d_2[0][0]            
__________________________________________________________________________________________________
flatten (Flatten)               (None, 524288)       0           dropout_5[0][0]                  
__________________________________________________________________________________________________
dense (Dense)                   (None, 16)           8388624     flatten[0][0]                    
__________________________________________________________________________________________________
mean (Dense)                    (None, 2)            34          dense[0][0]                      
__________________________________________________________________________________________________
log_variance (Dense)            (None, 2)            34          dense[0][0]                      
__________________________________________________________________________________________________
lambda (Lambda)                 (None, 2)            0           mean[0][0]                       
                                                                 log_variance[0][0]               
==================================================================================================
Total params: 10,676,180
Trainable params: 10,676,180
Non-trainable params: 0
__________________________________________________________________________________________________
Model: ""decoder""
_________________________________________________________________
Layer (type)                 Output Shape              Param #   
=================================================================
input_2 (InputLayer)         [(None, 2)]               0         
_________________________________________________________________
dense_1 (Dense)              (None, 512)               1536      
_________________________________________________________________
reshape (Reshape)            (None, 1, 1, 512)         0         
_________________________________________________________________
conv2d_6 (Conv2D)            (None, 1, 1, 512)         2359808   
_________________________________________________________________
up_sampling2d (UpSampling2D) (None, 2, 2, 512)         0         
_________________________________________________________________
conv2d_7 (Conv2D)            (None, 2, 2, 256)         1179904   
_________________________________________________________________
up_sampling2d_1 (UpSampling2 (None, 4, 4, 256)         0         
_________________________________________________________________
conv2d_8 (Conv2D)            (None, 4, 4, 128)         295040    
_________________________________________________________________
up_sampling2d_2 (UpSampling2 (None, 8, 8, 128)         0         
_________________________________________________________________
conv2d_9 (Conv2D)            (None, 8, 8, 64)          73792     
_________________________________________________________________
up_sampling2d_3 (UpSampling2 (None, 16, 16, 64)        0         
_________________________________________________________________
conv2d_10 (Conv2D)           (None, 16, 16, 32)        18464     
_________________________________________________________________
up_sampling2d_4 (UpSampling2 (None, 32, 32, 32)        0         
_________________________________________________________________
conv2d_11 (Conv2D)           (None, 32, 32, 32)        9248      
_________________________________________________________________
up_sampling2d_5 (UpSampling2 (None, 64, 64, 32)        0         
_________________________________________________________________
conv2d_12 (Conv2D)           (None, 64, 64, 32)        9248      
_________________________________________________________________
up_sampling2d_6 (UpSampling2 (None, 128, 128, 32)      0         
_________________________________________________________________
conv2d_13 (Conv2D)           (None, 128, 128, 16)      4624      
_________________________________________________________________
up_sampling2d_7 (UpSampling2 (None, 256, 256, 16)      0         
_________________________________________________________________
conv2d_14 (Conv2D)           (None, 256, 256, 2)       290       
=================================================================
Total params: 3,951,954
Trainable params: 3,951,954
Non-trainable params: 0
_________________________________________________________________
Model: ""vae""
_________________________________________________________________
Layer (type)                 Output Shape              Param #   
=================================================================
input_1 (InputLayer)         [(None, 256, 256, 1)]     0         
_________________________________________________________________
encoder (Model)              (None, 2)                 10676180  
_________________________________________________________________
decoder (Model)              (None, 256, 256, 2)       3951954   
=================================================================
Total params: 14,628,134
Trainable params: 14,628,134
Non-trainable params: 0
_________________________________________________________________
Train on 720 samples, validate on 180 samples

Questions

Why my network seems to not doing any learning?
Are loss functions defined properly?

","['convolutional-neural-networks', 'variational-autoencoder', 'image-generation']",
…
