…
        act1 = L.Dense(self.action, trainable=False)(x)
        act2 = L.Dense(self.action2, trainable=False)(x)
        act1 = L.Softmax()(act1)
        act2 = L.Softmax()(act2)
        actor = tf.keras.models.Model([x_input, x_goal], [act1, act2])
        actor.compile(loss=mish_loss, optimizer='adam')
        actor.summary()


actor.summary():
________________________________________________________________
Layer (type)                    Output Shape         Param #     Connected to                     
==================================================================================================
input_2 (InputLayer)            [(None, 300, 300, 3) 0                                            
__________________________________________________________________________________________________
input_3 (InputLayer)            [(None, 300, 300, 3) 0                                            
__________________________________________________________________________________________________
concatenate (Concatenate)       (None, 300, 300, 6)  0           input_2[0][0]                    
                                                                 input_3[0][0]                    
__________________________________________________________________________________________________
conv2d_52 (Conv2D)              (None, 294, 294, 4)  1180        concatenate[0][0]                
__________________________________________________________________________________________________
conv2d_53 (Conv2D)              (None, 288, 288, 4)  788         conv2d_52[0][0]                  
__________________________________________________________________________________________________
conv2d_54 (Conv2D)              (None, 142, 142, 8)  808         conv2d_53[0][0]                  
__________________________________________________________________________________________________
conv2d_55 (Conv2D)              (None, 69, 69, 8)    1608        conv2d_54[0][0]                  
__________________________________________________________________________________________________
conv2d_56 (Conv2D)              (None, 67, 67, 6)    438         conv2d_55[0][0]                  
__________________________________________________________________________________________________
p_gaussian (PGaussian)          (None, 67, 67, 6)    1           conv2d_56[0][0]                  
__________________________________________________________________________________________________
conv2d_57 (Conv2D)              (None, 65, 65, 6)    330         p_gaussian[0][0]                 
__________________________________________________________________________________________________
p_gaussian_1 (PGaussian)        (None, 65, 65, 6)    1           conv2d_57[0][0]                  
__________________________________________________________________________________________________
conv2d_58 (Conv2D)              (None, 63, 63, 6)    330         p_gaussian_1[0][0]               
__________________________________________________________________________________________________
p_gaussian_2 (PGaussian)        (None, 63, 63, 6)    1           conv2d_58[0][0]                  
__________________________________________________________________________________________________
conv2d_59 (Conv2D)              (None, 61, 61, 6)    330         p_gaussian_2[0][0]               
__________________________________________________________________________________________________
p_gaussian_3 (PGaussian)        (None, 61, 61, 6)    1           conv2d_59[0][0]                  
__________________________________________________________________________________________________
conv2d_60 (Conv2D)              (None, 59, 59, 6)    330         p_gaussian_3[0][0]               
__________________________________________________________________________________________________
p_gaussian_4 (PGaussian)        (None, 59, 59, 6)    1           conv2d_60[0][0]                  
__________________________________________________________________________________________________
conv2d_61 (Conv2D)              (None, 57, 57, 6)    330         p_gaussian_4[0][0]               
__________________________________________________________________________________________________
p_gaussian_5 (PGaussian)        (None, 57, 57, 6)    1           conv2d_61[0][0]                  
__________________________________________________________________________________________________
conv2d_62 (Conv2D)              (None, 55, 55, 6)    330         p_gaussian_5[0][0]               
__________________________________________________________________________________________________
p_gaussian_6 (PGaussian)        (None, 55, 55, 6)    1           conv2d_62[0][0]                  
__________________________________________________________________________________________________
conv2d_63 (Conv2D)              (None, 53, 53, 6)    330         p_gaussian_6[0][0]               
__________________________________________________________________________________________________
p_gaussian_7 (PGaussian)        (None, 53, 53, 6)    1           conv2d_63[0][0]                  
__________________________________________________________________________________________________
conv2d_64 (Conv2D)              (None, 51, 51, 6)    330         p_gaussian_7[0][0]               
__________________________________________________________________________________________________
p_gaussian_8 (PGaussian)        (None, 51, 51, 6)    1           conv2d_64[0][0]                  
__________________________________________________________________________________________________
conv2d_65 (Conv2D)              (None, 49, 49, 6)    330         p_gaussian_8[0][0]               
__________________________________________________________________________________________________
p_gaussian_9 (PGaussian)        (None, 49, 49, 6)    1           conv2d_65[0][0]                  
__________________________________________________________________________________________________
conv2d_66 (Conv2D)              (None, 47, 47, 1)    55          p_gaussian_9[0][0]               
__________________________________________________________________________________________________
reshape (Reshape)               (None, 47, 47)       0           conv2d_66[0][0]                  
__________________________________________________________________________________________________
flatten (Flatten)               (None, 2209)         0           reshape[0][0]                    
__________________________________________________________________________________________________
dense_1 (Dense)                 (None, 2000)         4420000     flatten[0][0]                    
__________________________________________________________________________________________________
dense_2 (Dense)                 (None, 200)          442000      flatten[0][0]                    
__________________________________________________________________________________________________
softmax (Softmax)               (None, 2000)         0           dense_1[0][0]                    
__________________________________________________________________________________________________
softmax_1 (Softmax)             (None, 200)          0           dense_2[0][0]                    
==================================================================================================
Total params: 4,869,857
Trainable params: 7,857
Non-trainable params: 4,862,000
__________________________________________________________________________________________________

","['convolutional-neural-networks', 'weights']","If I understood correctly 
…
I won't add a graph, but the batch size is also sampled from one of 32, 64, or 128. Also note that I did this with a fixed 10 epochs in each trial.
I understand that we'd expect the trialled parameters to converge gradually towards the optimal, but why the longer term movement of the average?
For context here is the score (1 - accuracy) over iterations

And also for context, here's the architecture of the CNN.
_________________________________________________________________
Layer (type)                 Output Shape              Param #   
=================================================================
conv2d_1 (Conv2D)            (None, 26, 26, 32)        320       
_________________________________________________________________
max_pooling2d_1 (MaxPooling2 (None, 13, 13, 32)        0         
_________________________________________________________________
conv2d_2 (Conv2D)            (None, 11, 11, 64)        18496     
_________________________________________________________________
conv2d_3 (Conv2D)            (None, 9, 9, 64)          36928     
_________________________________________________________________
max_pooling2d_2 (MaxPooling2 (None, 4, 4, 64)          0         
_________________________________________________________________
flatten_1 (Flatten)          (None, 1024)              0         
_________________________________________________________________
dense_1 (Dense)              (None, 100)               102500    
_________________________________________________________________
dense_2 (Dense)              (None, 10)                1010      
=================================================================

Optimization done with mini-batch gradient descent on the cross entropy.
","['convolutional-neural-networks', 'hyperparameter-optimization', 'bayesian-optimization']",
Suggestion for finding the stable regions in spiral galaxy data?,"
I am working with a data set that consists of the actual pitch angle (given as PA(Y)) and the pitch angle at each radii (listed from 1 to 217). In the image below, you can only see radii 1 through 16. The Mode(Y) in the image below is not of relevance at the moment.
…
history = model_2.fit([X_train_1,X_train_2], y_train, epochs = 120, batch_size = 256, validation_split = 0.2, callbacks = [keras.callbacks.EarlyStopping(monitor='val_loss', patience=20)])

model summary
/usr/local/lib/python3.6/dist-packages/ipykernel_launcher.py:15: UserWarning: Update your `Model` call to the Keras 2 API: `Model(inputs=[<tf.Tenso..., outputs=[<tf.Tenso...)`
  from ipykernel import kernelapp as app
Model: ""model_3""
__________________________________________________________________________________________________
Layer (type)                    Output Shape         Param #     Connected to                     
==================================================================================================
input_5 (InputLayer)            (None, 10081, 1)     0                                            
__________________________________________________________________________________________________
conv1d_5 (Conv1D)               (None, 10068, 64)    960         input_5[0][0]                    
__________________________________________________________________________________________________
max_pooling1d_3 (MaxPooling1D)  (None, 2013, 64)     0           conv1d_5[0][0]                   
__________________________________________________________________________________________________
conv1d_6 (Conv1D)               (None, 2000, 64)     57408       max_pooling1d_3[0][0]            
__________________________________________________________________________________________________
global_max_pooling1d_3 (GlobalM (None, 64)           0           conv1d_6[0][0]                   
__________________________________________________________________________________________________
input_6 (InputLayer)            (None, 104)          0                                            
__________________________________________________________________________________________________
concatenate_3 (Concatenate)     (None, 168)          0           global_max_pooling1d_3[0][0]     
                                                                 input_6[0][0]                    
__________________________________________________________________________________________________
dense_5 (Dense)                 (None, 128)          21632       concatenate_3[0][0]              
__________________________________________________________________________________________________
dense_6 (Dense)                 (None, 2)            258         dense_5[0][0]                    
==================================================================================================
Total params: 80,258
Trainable params: 80,258
Non-trainable params: 0

and the training process
__________________________________________________________________________________________________
Train on 588 samples, validate on 148 samples
Epoch 1/120
588/588 [==============================] - 16s 26ms/step - loss: 5.6355 - acc: 0.4932 - val_loss: 4.1086 - val_acc: 0.6216
…
